models/static_mlp.pth (torch, 66041 bytes, 6 tensors)

net.0.weight f4 [128, 42]
00000000: 9054 03bd bc0e c23d 2f5b 15bd ba5f f63e
00000010: c281 2abe a4d3 953e 1c39 08bd 7d3e 85bd
00000020: a1c8 203e a696 03bf 2f66 8d3d 027f 123e
00000030: 0fe4 3ebe 4a64 143e 7bcb 73be fab3 01be
00000040: f1c2 6cbe e0c6 50ba 3ce1 3ebc eab6 673e
00000050: f3cc 9a3e cffb 75be c14e b93e d8b6 c3bd
00000060: 30d1 823d 4e11 603e 0d0c e8be eadc 343e
00000070: 4c2d f5bc 07be f4be 8e8d 203c 7a3d b5bd
00000080: ee38 febd 1ee2 213f 684c b9be c511 0dbe
00000090: 612e 76bd d87a fdbe a9d1 9e3d f88f 38bd
000000a0: 50ce c53e e9c9 d13e 1e6a 933d 2279 df3d
000000b0: 4a5d 5f3e dc9c 04bf 8e89 363e 6832 923d
000000c0: 28a9 ce3d f230 ea3e 96dd a43e 78f6 733f
000000d0: dbfc 83be a1d1 88be 03b5 013e 6c76 80bd
000000e0: 69a7 963d 7e91 c63c 6d13 623e 3f9a a8be
000000f0: 7395 1dbe a848 51be 0dfc 19be 7f63 6f3e
00000100: a658 48bd 9ae2 d83c 76fa 9bbd 5e9e 72be
00000110: 5e8e 1dbe 66a7 8ebd 589e 83be 7ecd 663e
00000120: 2efa 8cbd bdc0 a7be 477d 9a3d 05ff 43bf
00000130: b5fd 07bd 499f 0c3e 0f0b 0abe 09c4 fb3e
00000140: 6eaf 19be 6270 a73e d5e2 9e3e b5e9 7a3e
00000150: cecf 4fbd 027c c0bd 028d 93bd 8cac 8fbe
00000160: c51f 8e3d 8ff6 debe 9fcd 123e 660b d9be
00000170: f047 47be aa7f a5be 2cf6 533c baef c3be
00000180: e9c0 a2be 2a0e 0c3d 8443 c9be c7cd 5a3c
00000190: 4ea1 d8be 7024 57bd da52 803d aecc 1ebe
000001a0: bce2 86bc d77a a73e 5e30 dbbe 95ae eb3e
000001b0: 5cdf abbe 8e61 f83e e5f2 563e 4934 a5be
000001c0: c4f6 14bd 9e12 653e fa47 a8bc c69a 5f3e
000001d0: 21b0 093f d316 503e 3632 1e3e de96 0fbe
000001e0: 4a6c 783e 6cb6 a73e 1bd6 4fbe 78d1 1bbe
000001f0: 6e8d a0be e16f 20bf eeba db3d d80e c9bc
00000200: 6fd4 a43e 66f5 2fbf 6df9 8b3e 8369 e3be
00000210: a965 943d 8f2d 09bf 7e2f 98be 369e 36be
00000220: 3a1a f93e 671f f6be 35c6 b3bc 1f95 82be
00000230: e70f 8abe 0a9c bd3e 09bd c1be 4f77 243f
00000240: e2ee 0c3e 7b88 e1be 1972 6cbd a65c 59bc
00000250: 6a31 77bd 7afe 453e 9b49 0cbd b6a2 d33e
00000260: 46c6 ddbc 4d9d fcbe deb2 ef3c 5432 283e
00000270: 0cf2 22be 1cb6 593e cc99 373d 7350 9c3e
00000280: ef2e a7bd 20ff 6abe f61e 9e3d a843 823e
00000290: 1f8e 963d 7da8 803e a59e 1cbe 15c4 aa3e
000002a0: 2b5c bbbd 1880 3e3d e4b4 cd3d 6220 02be
000002b0: 10c9 143e 9823 ce3d 6e65 953e 5f76 d73d
000002c0: d7e3 063f b5f7 0fbe 5d4f 5fbe d1ae 17be
000002d0: 18fd 84be 9ca8 8b3e 16d9 01bf 3797 bdbc
000002e0: e4c4 01bf 0c4e 6c3e 4ed5 0abe 0a46 07be
000002f0: df64 103e d3a8 263c 1913 b93e 2d4b afbe
00000300: 9f3d 423f 35d6 03bf cb5f adbe f1ab eb3d
00000310: 62b5 82be 63d8 b33e 0d79 febd 334c 1cbd
00000320: fd1a 0b3f 4b13 2dbe 61ec 98be b3cf 883d
00000330: 7d38 a7be 5d3d f83e 151e d5bd ed1b 0c3d
00000340: 214a a53e 05da d5bd acff b03d 0651 d23d
00000350: c566 583e 6bb5 96be 555c 6d3e 19c7 b23c
00000360: 1f11 303d 6d10 aa3e 19aa 5ebe 9aee 343f
00000370: 59cc 613d 1b69 a2bd 8f6b a03e 8f79 063e
00000380: 7706 b23e 2fda bb3e e6d6 fc3e b830 8e3e
00000390: fec4 0cbe acf5 35be 870a aebe 1548 0ebc
000003a0: 4d52 67be e2ea 4fbe 9fbd 29be 0042 bdbe
000003b0: ae79 3ebd 8370 ca3d cc86 50be 107f 363e
000003c0: 302c 96be a88d 4bbe e867 adbd 4d2e 2cbf
000003d0: 83bf 523e 023f 763d 6a10 1bbe 038c 2a3e
000003e0: 1619 75be 6b22 debd a3f7 e03d f3ff dcbe
000003f0: a696 eebd 6278 4ebd 52b4 3bbf 5c3f 413f
-0.032063067 0.094754666 -0.036463913 0.4811991 -0.16651061 0.2926303 -0.03325759 -0.06506059
0.15701534 -0.51401746 0.069042556 0.14306262 -0.18641685 0.14491382 -0.2380809 -0.12666312
-0.23121239 -0.0007964205 -0.01165038 0.2262837 0.3023449 -0.24021839 0.36192897 -0.09556359
0.063875556 0.21881601 -0.45321694 0.17662397 -0.029928826 -0.4780123 0.009799374 -0.08849616
-0.12413202 0.6323565 -0.36191106 -0.1377631 -0.060102824 -0.49507785 0.07754833 -0.045059174
0.38633966 0.40974358 0.071979746 0.10911776 0.2181293 -0.5180185 0.1782591 0.071385205
0.10090858 0.45740467 0.32200307 0.95297956 -0.2577885 -0.26722434 0.12666707 -0.06272587
0.0735615 0.024239298 0.22077723 -0.3293018 -0.15389042 -0.20437872 -0.15037556 0.23377798
-0.048912667 0.02647524 -0.07616131 -0.23693225 -0.1538634 -0.069655225 -0.25706744 0.22539327
-0.068836555 -0.32764235 0.07543426 -0.76561004 -0.03320094 0.13732637 -0.13480781 0.49173
-0.15008327 0.3270293 0.31032434 0.24503215 -0.050735287 -0.093986526 -0.072046295 -0.2806133
0.06939653 -0.43547484 0.1433625 -0.4239151 -0.19461036 -0.32323962 0.01293711 -0.38268834
-0.31787804 0.034193195 -0.39309323 0.013354725 -0.42310566 -0.052524984 0.06265803 -0.15507767
-0.016465537 0.32710907 -0.4281034 0.46031633 -0.33568847 0.48511928 0.20991094 -0.32266453
-0.036368147 0.22370383 -0.020542134 0.21836385 0.53784376 0.20321207 0.15448841 -0.14022395
0.24260059 0.32756364 -0.20296519 -0.15216625 -0.31357902 -0.62670714 0.107290134 -0.02454321
0.32193324 -0.68733823 0.27338734 -0.44416437 0.07245953 -0.5358514 -0.29723734 -0.1783379
0.48652822 -0.48070833 -0.021945098 -0.25504395 -0.26965258 0.3703311 -0.37839535 0.6424455
0.13763002 -0.4404944 -0.057726 -0.013266718 -0.06034986 0.19335356 -0.034249883 0.41335076
-0.027072083 -0.4933876 0.029260095 0.16425449 -0.15912646 0.21260875 0.044824407 0.30530128
-0.08163249 -0.22948885 0.07720749 0.25442243 0.07351326 0.25128546 -0.15294893 0.33352724
-0.09148439 0.04650888 0.10044268 -0.12707666 0.14529824 0.10065383 0.29178947 0.10520624
0.52691406 -0.14059336 -0.21807618 -0.14812781 -0.25974345 0.27277076 -0.5072187 -0.023143394
-0.50691056 0.23076648 -0.13557932 -0.13210312 0.1410098 0.010172087 0.36147383 -0.34237042
0.75875276 -0.5149873 -0.33862147 0.115074046 -0.2552901 0.35126027 -0.12425432 -0.038158607
0.54338056 -0.16901891 -0.29867843 0.066802405 -0.32660285 0.48484316 -0.10406128 0.03420632
0.32283118 -0.104419746 0.086425155 0.1026936 0.21132953 -0.29435286 0.23179753 0.021823453
0.042985078 0.33215657 -0.21744575 0.7067658 0.05512652 -0.079302035 0.3133206 0.13132308
0.34770557 0.36689898 0.49382704 0.27771544 -0.13747022 -0.17769498 -0.33992407 -0.008684178
-0.22589989 -0.20304444 -0.16576241 -0.36964417 -0.04650276 0.09884741 -0.20363921 0.17821908
-0.29330587 -0.19878256 -0.08467084 -0.6725815 0.20580868 0.060118683 -0.1514298 0.16654973
-0.23935351 -0.108464085 0.10984733 -0.43164024 -0.11649828 -0.050407775 -0.7332202 0.75487304

net.0.bias f4 [128]
00000000: d81a 74bd 8862 b23c 39fd aabd 1faf f6bb
00000010: d34f 4cbc 26d0 f2bd 919d d13e 04d0 9cbe
00000020: ff15 e3be fc5f 4f3e d1fb c2bd a70f 353e
00000030: 5c65 7a3e 3c96 d9be 8c32 fdbe fa24 d23c
00000040: fa1e 1dbd def6 403c 3264 f1be e99f 82be
00000050: dcb7 0dbd 43ff 483e dc06 bf3d 39d7 3b3d
00000060: 890e 2fbe a91a ddbe 34eb a13c 4bda 633d
00000070: 56dd 20be cad5 16be d3c2 fcbe 5887 83be
00000080: 9dfc 7abe 789b edbd c68b c63e 99a0 0b3e
00000090: 58b4 0bbe 9f21 26be 83ac dbbc ce07 abbe
000000a0: fa6d c3be bed9 afbe ee5c 303e 7662 10be
000000b0: bed7 d9bd f845 a8be 350d 3a3e 5048 56be
000000c0: d439 7e3d 06ad 5cbe a7f4 7fbe 7ffd 18be
000000d0: 2571 80be 3e6f 54be fb53 f23d fd20 9cbe
000000e0: 37d5 bbbe d999 59be 1ae5 20be 628a 3bbe
000000f0: 9572 f53e 2c48 03be 5ef6 0cbb 77f1 09be
00000100: 0aa5 91be 112f 45bd 3366 3cbd 5523 09bf
00000110: 3202 ecbd dacc 1ebf cdb6 54be 5273 89be
00000120: af10 2ebe c01e 5fbe 5d96 4c3e 3853 40be
00000130: 9341 0abc 554f abbe f7b1 993c 8540 6dbd
00000140: 0363 f5bc c66c e7be f570 67be f093 ccbd
00000150: 5cf0 a3bc 5205 0bbf e1b9 45be 8457 063e
00000160: 6c64 13bd 6ec3 853d 9fd9 b83c 580a 1dbe
00000170: 2feb 6fbc 17cb 73be 4f3d a2be 0343 acbd
00000180: a1cd 18be f1a4 2abe 4f0e 1d3e 625f 42bd
00000190: ccef 95be c993 a33e 5f5a 5ebe fee1 a8bd
000001a0: f472 f6be 0d45 d5be b069 aebe 1417 f23d
000001b0: e316 b2be 665b 11be d4ed 21be b867 81be
000001c0: cdb7 6b3d 8caa 9cbe ce83 693d 9a46 00be
000001d0: e67b 98bc c393 403e cf23 7ebe 4058 8dbc
000001e0: bf54 4abe 6b28 073e 8066 7ebe f2cb 3abe
000001f0: 04a8 95be 5ff6 04be a20a 8ebe f842 853e
-0.059595913 0.021775499 -0.0834908 -0.0075282003 -0.012470203 -0.118561074 0.40940526 -0.30627453
-0.4435272 0.20251459 -0.095206864 0.17681752 0.24452728 -0.42497432 -0.49452627 0.025652397
-0.03835962 0.011777608 -0.47146755 -0.25512627 -0.03459917 0.19628625 0.0932748 0.04585955
-0.17095388 -0.43184403 0.019765474 0.055628102 -0.15709433 -0.14729992 -0.4936739 -0.25689197
-0.24510427 -0.11601919 0.38778514 0.13635482 -0.13643014 -0.16223763 -0.026815658 -0.33404392
-0.38169843 -0.34345812 0.1722295 -0.1410006 -0.10636853 -0.32865882 0.181691 -0.20926023
0.062066868 -0.21550378 -0.24995671 -0.14940451 -0.25086322 -0.2074556 0.11832424 -0.30493918
-0.36686108 -0.21250094 -0.15712395 -0.18314508 0.47938982 -0.128205 -0.002150915 -0.13471018
-0.28446227 -0.04814059 -0.045995902 -0.5356954 -0.11523856 -0.6203133 -0.20772858 -0.26845795
-0.16998552 -0.21789074 0.19979234 -0.18781745 -0.008438486 -0.33458963 0.018761618 -0.05792286
-0.029954439 -0.45200175 -0.22601683 -0.09989154 -0.020012073 -0.54304993 -0.19309188 0.13119322
-0.03598444 0.06531416 0.022564707 -0.15335977 -0.0146434745 -0.23807941 -0.316874 -0.08411219
-0.14922191 -0.16664483 0.1533749 -0.047454245 -0.29284513 0.3194869 -0.21714161 -0.082462296
-0.48134577 -0.41654244 -0.34065008 0.11820808 -0.34783086 -0.14195022 -0.1581338 -0.25274444
0.057548333 -0.30598867 0.057010464 -0.12526932 -0.018613767 0.18806367 -0.24818347 -0.017253995
-0.1975889 0.13199012 -0.24843788 -0.18241861 -0.29229748 -0.12984608 -0.27742487 0.26027656

net.3.weight f4 [64, 128]
00000000: 94fc 8e3e 54a6 a1be 7da2 c8be f457 2bbf
00000010: be2f b3bc 4d81 0d3e dcb7 a4be 6089 94bd
00000020: 0063 113e 5767 89bd 2c52 d43e 0058 08bd
00000030: a88e 3fbf 8ec1 983e 442f 3c3e f129 2e3e
00000040: f21c a73e fbc1 443e fc9a 11be 9f27 e63d
00000050: f4db 8abe 5205 0abe a557 1cbf 1f2b 0cbd
00000060: c5ad 8f3e b607 18be a764 a5bd a70c 093e
00000070: c964 03be 5a6c aebe f799 a6bc d0b4 a33d
00000080: a2bd f93e 8a15 8abf d168 71be 51e7 83bf
00000090: 9e86 ab3e bee1 a53e 9d67 6f3e 3b20 53bc
000000a0: 404f 70be 06d1 bd3c dc65 81be ec74 123f
000000b0: 86d2 0dbe 07da 123f 8e2d 473d dc0c 1f3e
000000c0: a496 b8be 06d5 b8bd 3131 cabd 131d fdbd
000000d0: f46b 303a a9c3 d23e 902b 95bf 79f4 26bd
000000e0: ef7f b0bc b119 a5bc 3e81 54bf f0b7 193f
000000f0: 3cf2 34be 0100 16bd 233a 573e 9ba4 173f
00000100: 6a98 1ebe 64c6 bbbe d3f2 1abe 7fa5 963d
00000110: cec9 053e 1706 7bbd bcba 70bd 276e 223f
00000120: 0e72 b23e 5e26 263d 094b b5be 866d 43bd
00000130: b441 153e 1216 c93d 9743 65bf 0c5c e2be
00000140: 85b3 673d 947f 613e e463 dd3e 6d83 f5bd
00000150: 0288 2bbf d3fd f73c 79fb b0be c267 65bf
00000160: ab7d 6cbe 6487 4abe 8a45 babd a795 41be
00000170: 459a 6cbf 106e f93e 82be 293d 28dd f33e
00000180: 5e0b 983e 61d3 b33d c565 5bbe f433 8abd
00000190: 66d6 da3c fea0 bdbe 98c2 91bd b538 eb3d
000001a0: f6e9 573e 7266 a23e 77ac ae3d 5d24 d63e
000001b0: 144f 013e 4cff a23d a0ef 3bbe 4481 cebe
000001c0: bd41 cbbd b569 f73e 3f4f cfbd 2cca 1bbf
000001d0: 38ab 933c 0301 a83e 1087 a1bc 1af2 fdbc
000001e0: 0842 9a3e 5a83 9f3c 2575 8a3d 5409 363c
000001f0: a9d1 cc3c 4238 053e 5046 15bd 875d a9be
00000200: d9a7 3bbe 9c2b e23d 4dd9 e2ba 2aa5 9b3d
00000210: 58c0 283e 738e a2bd 23bb cabd e70f babd
00000220: c4db 3e3f 6c36 88bb b064 d03d c631 67be
00000230: c332 1c3e ae62 df3e 7fe5 a03e 337d 03bd
00000240: 3161 07bf 21c7 49bc 67e3 483e 55d0 813d
00000250: f8be d33d 499c d8be 41a9 f6be ce26 f6bb
00000260: 42b1 51be e316 cc3d 3094 3bbf a907 863e
00000270: 8f5d 843e a4c3 843d 001e 9e3e 44b0 ab3c
00000280: 6ef0 19be e86d f0bd 6b9d 71bf 277f 9fbe
00000290: 65a8 46ba fe55 8b3e 3e1f 4d3e b8db f9bd
000002a0: c75a 87be 7d5f 313c 4e84 1cbe 6aca b1be
000002b0: e620 f03d eb67 d83e 7661 7d3e 1fad 7e3e
000002c0: f6d1 e1bc 49c7 c4be 6c30 93be 4992 373e
000002d0: 8ad4 153e fb66 b1bc 0747 b3be dd2c f93e
000002e0: ba1f 123e 5320 f5be 08a0 043e a1ab d63d
000002f0: 1f72 8abe d80b 28be 2585 3d3e e196 403e
00000300: 74c6 f5be 60e1 a6be 7e82 cc3d d289 003f
00000310: 19cd f8bd 99ce 4f3e 500d 053e da2b 0c3e
00000320: cfc0 7d3d cfd4 24bf 127f ffbe ab8a d03d
00000330: ca51 a63e f60a febd 45eb 4fbe 533b 0bbf
00000340: 5b4b ebbe 88f2 d23d bc62 b8bd 73eb a0be
00000350: b8a3 053e 49e8 2c3f b094 5dbf f4b7 c6be
00000360: 3fd3 e93e 2595 713e 38bb 67bf 19a5 f03d
00000370: 0707 b43d e2a9 51bf 2ff2 a3be 4016 94bd
00000380: e87b 2cbf ada7 e6bd 7ffc 1fbc 74d2 bbbe
00000390: 446d 1bbe 5cc5 08bf 2fc0 76bc a8ee 333e
000003a0: 9463 d2bd c49f 8d3f f183 f53c 44ab 6a3c
000003b0: 94cb afbd 22c5 e53e 2d8b 73be 7e2d 013f
000003c0: 2485 56be 28e9 013e c047 b23d e630 a33e
000003d0: b5c3 643e 4137 b93b 5ec3 8b3c 9863 40bf
000003e0: de92 de3e 36a6 9bbd 9423 093e 1fd3 73be
000003f0: ba25 d03e c9eb 88be 3beb d63c c14d 33be
0.27927077 -0.3157221 -0.3918647 -0.6693108 -0.021873351 0.13818856 -0.32171524 -0.07252765
0.14197922 -0.06709164 0.41468942 -0.03328705 -0.7482705 0.2983517 0.18377405 0.17008187
0.3263927 0.19214623 -0.14219278 0.11238026 -0.27120936 -0.13478592 -0.61071235 -0.03422081
0.28062263 -0.14846691 -0.080758385 0.13383733 -0.12831415 -0.3406704 -0.020337088 0.079934716
0.4877749 -1.0787823 -0.2357514 -1.0304967 0.33501142 0.3239879 0.23379369 -0.012886102
-0.23467731 0.02317096 -0.25273025 0.5720966 -0.1384984 0.57363933 0.04862743 0.15532249
-0.3605243 -0.09025006 -0.09872664 -0.12359061 0.00067299535 0.41164902 -1.1653919 -0.04076049
-0.021545378 -0.020153852 -0.8300971 0.6004629 -0.1767053 -0.036621097 0.21018271 0.59235543
-0.15487829 -0.36674798 -0.15131693 0.073557846 0.13065264 -0.061285105 -0.058771834 0.6344933
0.34852642 0.040563934 -0.3540881 -0.04771187 0.14575845 0.09818663 -0.8955626 -0.4421085
0.056567688 0.22021323 0.43240273 -0.11987958 -0.67004406 0.0302724 -0.34566858 -0.89611447
-0.23094814 -0.1977821 -0.09095295 -0.18904744 -0.92422897 0.48716784 0.041441448 0.47629666
0.29696172 0.08780552 -0.21425541 -0.067481905 0.026713561 -0.3703689 -0.07117194 0.114854254
0.21085343 0.31718785 0.08528989 0.41824618 0.12627822 0.0795885 -0.18353128 -0.40332997
-0.09924648 0.48322836 -0.10122537 -0.60855365 0.01802598 0.32813272 -0.019717723 -0.030999232
0.30128503 0.019471813 0.06760625 0.011110622 0.025002318 0.13009742 -0.03644401 -0.33079168
-0.18325748 0.11043474 -0.0017307192 0.07599862 0.16479623 -0.07937326 -0.09898975 -0.090850644
0.74554086 -0.004156878 0.101754546 -0.22577581 0.15253739 0.43629974 0.31425092 -0.03210182
-0.5288268 -0.012315542 0.19617997 0.06338564 0.10339159 -0.42306736 -0.48176005 -0.00751195
-0.20477775 0.09965303 -0.7327299 0.2617772 0.2585263 0.06482628 0.30882263 0.020958073
-0.15033123 -0.11739713 -0.94380826 -0.31151697 -0.00075781933 0.27214044 0.20031449 -0.12200111
-0.26436445 0.010825989 -0.15284845 -0.34724742 0.11725025 0.42266783 0.2474421 0.24870728
-0.027565937 -0.38433293 -0.2874788 0.17926897 0.14631858 -0.02165555 -0.35015127 0.4866704
0.14269915 -0.47876224 0.12951672 0.10481954 -0.27040192 -0.16410768 0.18507822 0.18807556
-0.4800297 -0.32593822 0.09985827 0.502103 -0.12148494 0.20293655 0.1299336 0.13688603
0.061951455 -0.6438722 -0.49901634 0.10182699 0.32484275 -0.124044344 -0.20304592 -0.54387397
-0.4595593 0.103001654 -0.09003207 -0.31429633 0.13050735 0.6754194 -0.86555004 -0.3881222
0.4566898 0.2359205 -0.9052005 0.1175024 0.08790403 -0.81899846 -0.3202071 -0.07230806
-0.67376566 -0.1126245 -0.00976479 -0.36684 -0.151784 -0.53426147 -0.015060469 0.17571509
-0.10272899 1.1064382 0.029970141 0.0143230595 -0.08583751 0.44876963 -0.2378356 0.5046004
-0.20949227 0.12686598 0.087050915 0.31873244 0.22340281 0.0056523387 0.017060932 -0.7515197
0.43471426 -0.076000616 0.13392478 -0.23811005 0.40653783 -0.2674239 0.026235214 -0.1751013

net.3.bias f4 [64]
00000000: 0c5d d73e ab87 79bd 52a8 5ebe 16ff 883e
00000010: 3606 b7bd e683 013e fb54 683e 7580 c43d
00000020: ef59 9c3e fe59 62bd 16ea adbd 4378 a73d
00000030: 43ea f5bc a3d9 883e b69b 8e3e c833 21bd
00000040: 2132 443d 06d8 113e caf0 f13d 6794 a2be
00000050: 2b59 85bd 12e8 9b3e 1a8e 90be 8f51 0dbe
00000060: ea8a 733e 88ca 453e bf16 b5bd e8d4 153e
00000070: 4679 063e 37c1 98be daf4 17bc 66bf 0abe
00000080: a932 34be f32d e23d 75e9 183d 8a39 0dbc
00000090: 35cd 7abe 9b67 79bd 59b4 0dbd 9073 4cbd
000000a0: eee4 9b3e e321 7b3e 8b5d 6e3e 071f 06bc
000000b0: d174 ce3e c447 ee3d d9c0 653d eba0 b9bd
000000c0: 1b18 a1be 83f9 fa3c b31e a13e 506e 823d
000000d0: 41eb d53d 35ef 2b3d 882f 7dbd 28e8 0e3f
000000e0: 6689 a73e 1f8e 4d3e add7 4f3e ffeb 823e
000000f0: ef78 b23e 3ffb 98be a526 08be ab72 7f3e
0.42063177 -0.0609204 -0.21743897 0.26757115 -0.089367315 0.12647972 0.22688667 0.09594814
0.30537364 -0.055261604 -0.08491914 0.08177235 -0.030018931 0.26728544 0.27853173 -0.039356023
0.04789937 0.14242563 0.11813505 -0.31753847 -0.06511148 0.30450493 -0.28233415 -0.13800643
0.2378346 0.19315541 -0.08842229 0.14631999 0.131322 -0.2983491 -0.009274686 -0.13549575
-0.1759745 0.1104392 0.037332017 -0.008619675 -0.24492343 -0.06088982 -0.03459582 -0.049914896
0.30448097 0.24524646 0.23277871 -0.008186108 0.403235 0.11634782 0.056092117 -0.09063896
-0.31463704 0.030636555 0.31468734 0.06368697 0.10445262 0.041976172 -0.061812907 0.5582299
0.32722014 0.20073746 0.20297118 0.25570676 0.3485789 -0.29879186 -0.13295992 0.24946086

net.6.weight f4 [29, 64]
00000000: 5db2 7b3d 3973 42bf 5d61 333e 25d2 cfbf
00000010: a082 013c 6df1 1cbf ba81 3b3e 053c 8bbd
00000020: 8b49 8d3e 50a7 f2bd 7865 f8bd 1f61 333e
00000030: c99f 123e ddb5 67bf 1b30 2fbf 846f a1bd
00000040: 27fa 8cbf 306d 0fbf 8bc8 773e 04d5 e23d
00000050: f061 a13d 5d08 0abe 50d6 f7bd bb40 3dbe
00000060: 2d8f f5be 1041 273e 410a 8cbc 2096 ee3d
00000070: 4726 333e fd34 f03c 3caf 133e c4f3 f43d
00000080: f58b 0f3e e56c be3d 3f05 3f3e 2eda 1a3e
00000090: 6d77 0c3e e37f 153e 0533 adbc d84b 173e
000000a0: 0b66 56bf 4dcc 903e 8fc9 dd3c 3304 b6bc
000000b0: e9a5 3d3e 3970 f4bf 335c dfbf eac7 a7bf
000000c0: ca6f 273e 359f 5e3d 2b0b 01bd 8a12 b1bf
000000d0: 7af8 86bf 1196 a83d 62ee 11bf c5d6 13bf
000000e0: 3eb1 aebd 19df 213e 054a ce3d 8b73 74bf
000000f0: 932d a83d 57d5 b93d e152 93bf be6f 123c
00000100: 4605 a33e b759 4a3e 5e5f 27bf 4027 2abe
00000110: 19c6 05be 3c82 643e 1e10 93bf 2f42 81be
00000120: 1d79 863e a761 493e 7216 033e 5afd 5ebf
00000130: 3aac 81bf fcb4 973c 1e65 97bf cf51 cfbf
00000140: c461 eebe 8e66 273e 4b0e 98bf 258c bdbf
00000150: 5748 a1bf 9950 ce3e c488 593d 965b 2a3e
00000160: 10d5 ba3d 33a8 34bf 8308 d83d a16a 5cbf
00000170: 6fc0 6fbf 60ac 8ebf bf74 b8bf 7730 06c0
00000180: bca5 553e 6502 c13d 38f5 4c3e 7504 8bbf
00000190: 747e a4bf ff81 91bf 6bf9 7f3d f5bf 84bf
000001a0: 6bf1 833e 0ec1 6abf 34d4 b63e 50cd 213e
000001b0: df3c 6f3e 25a2 2f3d ba18 90bf 8372 06be
000001c0: 4aea 30bf 284e c53e ae73 f33d d9ed cabc
000001d0: 1a59 123e 4974 85bf ade0 0fbf cddb 583e
000001e0: cfca 603e 2f33 5fbf e6ab 83bf 01d6 97bf
000001f0: d8bc 9abf 91d7 463e c1c7 58bd 72ac 0a3e
00000200: c299 47bf 8c1e 04bf d442 18bd b34c 11bf
00000210: d75d b4bf eec5 c43e 4a69 8ebe d622 36bf
00000220: 7998 b03e a4d5 953e e36a 673e 2a92 55bf
00000230: 74fd 14bf f898 1abf 95bc 96be 2177 55be
00000240: 57ea 7e3e 3300 16bd c50a 11bf 1bcb c6bf
00000250: fbeb cdbe b2af 2bbc 40a9 623e 2325 903e
00000260: f485 2fbf 2a09 153e eda1 59bf efdb d93e
00000270: 1b0d 913e a9ac c8be 603f 90bf be7b 4fbf
00000280: 937f 56be 3423 b43e 42c0 82be b64f 30bf
00000290: 0f4a 10bf 2433 7dbd 1e0d ab3e 765f 41bd
000002a0: dd8b 41bf 128a ccbe 6a92 89bf 9ed5 613e
000002b0: 371a b73e 390c a2bf 3b5d a1bf 57e5 63be
000002c0: 611d 9dbd de8d b03e e5ba c3bd 9a59 cc3e
000002d0: f8c7 87bf 46bb 9e3e 9689 debe ca3a d43e
000002e0: 627e bfbf 6b89 40bf 8a1b 8c3e f473 33bf
000002f0: 9656 fabd aaa0 49bf ea2d 38bf c55e b43e
00000300: ac24 48bd a8d2 23bf 970e 25bf b115 d03e
00000310: 418b c9be 2e06 6d3e ee05 09bf a962 093e
00000320: 4b3b 0f3d 49c0 16bf 0f5f 7bbe b2f1 883e
00000330: 03e2 74bf 21a2 373e 4808 28bf d4be 4fbf
00000340: aca4 993e 891e f93d bcf9 92bf df79 b0bd
00000350: d2fc 82bf d94b 9c3e 6b70 debe fe5a 1f3e
00000360: f0d2 093e 6c4c 913c 917e 11bc 7164 8d3e
00000370: 03b3 6b3e ad04 1f3e 754c a13d 8a2d acbd
00000380: 5193 e1bd c27d 7c3d 15d0 223d c175 2c3e
00000390: 65f3 fbbe 1463 6cbf 2c77 983d 9279 d63d
000003a0: bb78 19bf aac8 013f 582f 05bf cd9c 053e
000003b0: f4b4 773e daa7 f8be f653 c5bf 2f8e 57bf
000003c0: 6090 1abf de47 8c3e 506f 823e af6d 513e
000003d0: 0c1b 6abf 4ad4 8c3e 436a 9dbd ca2b 963e
000003e0: bb3c 28be b7c5 6b3e 45a1 b63d 2c7f 42bf
000003f0: e91f 0dbd 1779 9cbe 9bb8 d23d f9e8 01be
0.061449397 -0.75957066 0.1751761 -1.6236006 0.007904679 -0.61305887 0.18311206 -0.06798557
0.2759517 -0.118483186 -0.12128729 0.17517518 0.14318766 -0.90511876 -0.6843278 -0.07882598
-1.101384 -0.5602598 0.24197595 0.11075786 0.07880008 -0.13479753 -0.12101424 -0.18481724
-0.47960797 0.16333413 -0.017094733 0.11649728 0.1749507 0.029322142 0.14422315 0.11960557
0.14018233 0.09298114 0.18654345 0.15122291 0.13717432 0.14599566 -0.021142492 0.14775026
-0.83749455 0.2828087 0.02707365 -0.0222188 0.18520321 -1.9096748 -1.7450012 -1.3107884
0.16351238 0.05435105 -0.03150479 -1.3833783 -1.0544579 0.08231748 -0.5700437 -0.5774959
-0.085299 0.15807761 0.10072712 -0.95488805 0.082118176 0.090738945 -1.1509668 0.008937774
0.3183996 0.19760786 -0.65379894 -0.16616535 -0.1306385 0.22315305 -1.1489294 -0.25245807
0.26264277 0.19666158 0.12801531 -0.87105334 -1.0130684 0.018518917 -1.1827734 -1.6196841
-0.46558964 0.16347715 -1.1879362 -1.4808394 -1.2600201 0.40295866 0.053108945 0.166365
0.0912267 -0.7056915 0.105484985 -0.861002 -0.93653005 -1.1146355 -1.4410628 -2.096708
0.20864004 0.09424285 0.20015419 -1.0860735 -1.285109 -1.1367797 0.062493723 -1.0371081
0.25770125 -0.9170083 0.35708773 0.15800977 0.23363064 0.042879242 -1.1257546 -0.1312962
-0.69107497 0.3853619 0.118872985 -0.024771618 0.14291802 -1.0426112 -0.56202203 0.21177597
0.21952365 -0.87187475 -1.0286834 -1.1862184 -1.208888 0.1941817 -0.052924875 0.13542345
-0.7796899 -0.5160911 -0.037173107 -0.5675766 -1.4091138 0.38432258 -0.27814704 -0.71146905
0.34491327 0.29264557 0.22599368 -0.83426154 -0.5819924 -0.6038966 -0.29440752 -0.20846225
0.24894081 -0.036621284 -0.5665706 -1.5530733 -0.402191 -0.010478901 0.22134876 0.28153333
-0.6856377 0.14554277 -0.85012704 0.4255061 0.2833031 -0.3919423 -1.126934 -0.8104819
-0.20947103 0.35183108 -0.25537306 -0.6887163 -0.56363004 -0.06181635 0.33408445 -0.04721018
-0.7560404 -0.3994909 -1.0747807 0.22054145 0.35762188 -1.265998 -1.2606577 -0.22255455
-0.07671619 0.34483236 -0.09557132 0.3991211 -1.0607901 0.31002253 -0.43464345 0.41451102
-1.4960444 -0.75209683 0.2736476 -0.70098805 -0.12223546 -0.7876078 -0.7194506 0.35228553
-0.048863098 -0.6399331 -0.6447539 0.4064155 -0.39364055 0.23146889 -0.53524673 0.13416542
0.034968656 -0.58887154 -0.2454798 0.267469 -0.95657367 0.17932941 -0.65637636 -0.81150556
0.30008447 0.12164027 -1.1482463 -0.08616995 -1.0233405 0.30526617 -0.43445143 0.15562055
0.13459373 0.017736636 -0.008880273 0.27615693 0.23017506 0.15529127 0.07875911 -0.084071234
-0.110144265 0.06164337 0.039749224 0.16841795 -0.49209133 -0.9233868 0.07444605 0.104724064
-0.59949845 0.50696814 -0.52025366 0.13048096 0.24190122 -0.4856556 -1.5416248 -0.8420133
-0.6037655 0.2739858 0.2547555 0.20451997 -0.9144752 0.27505714 -0.076862834 0.29330283
-0.16429417 0.23024641 0.089174785 -0.759753 -0.03445426 -0.30561134 0.10289117 -0.12686528

net.6.bias f4 [29]
00000000: b292 e03d ca21 c0be 4e04 d43e f979 17bd
00000010: 0e24 b5be 698a a43d 25cd ebbe 4dc6 a3bd
00000020: fcc3 c23e e523 c0bd b7a9 dcbd 11c0 523e
00000030: 3f16 043f ef17 13bf 7062 eabd b26c 6cbd
00000040: 9d83 733d 741a 4b3d b5a3 8ebe 0680 a8be
00000050: 14a0 cd3e 0524 263e a0ee 85be 7f4e b7be
00000060: d1d4 5ebd 01e3 223e ce56 c63e 6b83 e9bd
00000070: 20b0 c33e
0.1096548 -0.3752578 0.41409534 -0.036981557 -0.3537907 0.08034212 -0.4605495 -0.07996807
0.3804015 -0.09381846 -0.10774558 0.2058108 0.51596445 -0.57458395 -0.11444557 -0.057720847
0.059451688 0.049585775 -0.27859274 -0.32910174 0.40161192 0.16224678 -0.2615862 -0.35802075
-0.054402176 0.15906908 0.38738102 -0.11402019 0.3822031
